name: "FNN"
layer {
  name: "a9a"
  type: "Data"
  top: "data"
  top: "label"
  include {
    phase: TRAIN
  }
  data_param {
    source: "examples/a9a/a9a_train_lmdb"
    batch_size: 50
    backend: LMDB
  }
}
layer {
  name: "a9a"
  type: "Data"
  top: "data"
  top: "label"
  include {
    phase: TEST
  }
  data_param {
    source: "examples/a9a/a9a_test_lmdb"
    batch_size: 16281
    backend: LMDB
  }
}
layer {
  name: "fc6_BDK_1"
  type: "InnerProduct"
  bottom: "data"
  top: "fc6_BDK_1"
  param {
    lr_mult: 1
    decay_mult: 1
  }
  param {
    lr_mult: 2
    decay_mult: 0
  }
  inner_product_param {
    num_output: 2
  }
}
layer {
  name: "fc6_BDK_2"
  type: "InnerProduct"
  bottom: "data"
  top: "fc6_BDK_2"
  param {
    lr_mult: 1
    decay_mult: 1
  }
  param {
    lr_mult: 2
    decay_mult: 0
  }
  inner_product_param {
    num_output: 2
  }
}
layer {
  name: "fc6_BDK_3"
  type: "InnerProduct"
  bottom: "data"
  top: "fc6_BDK_3"
  param {
    lr_mult: 1
    decay_mult: 1
  }
  param {
    lr_mult: 2
    decay_mult: 0
  }
  inner_product_param {
    num_output: 2
  }
}
layer {
  name: "fc6_BDK_4"
  type: "InnerProduct"
  bottom: "data"
  top: "fc6_BDK_4"
  param {
    lr_mult: 1
    decay_mult: 1
  }
  param {
    lr_mult: 2
    decay_mult: 0
  }
  inner_product_param {
    num_output: 2
  }
}
layer {
  name: "fc6_BDK_5"
  type: "InnerProduct"
  bottom: "data"
  top: "fc6_BDK_5"
  param {
    lr_mult: 1
    decay_mult: 1
  }
  param {
    lr_mult: 2
    decay_mult: 0
  }
  inner_product_param {
    num_output: 2
  }
}
layer {
  name: "fc6_BDK"
  type: "Eltwise"
  bottom: "fc6_BDK_1"
  bottom: "fc6_BDK_2"
  bottom: "fc6_BDK_3"
  bottom: "fc6_BDK_4"
  bottom: "fc6_BDK_5"
  top: "fc6_BDK"
  eltwise_param {
    operation: SUM
    coeff: 0.2
  }
  include {
    phase: TEST
  }
}
layer {
  name: "loss_1"
  type: "SoftmaxWithLoss"
  bottom: "fc6_BDK_1"
  bottom: "label"
  top: "loss_1"
  include {
    phase: TRAIN
  }
}
layer {
  name: "loss_2"
  type: "SoftmaxWithLoss"
  bottom: "fc6_BDK_2"
  bottom: "label"
  top: "loss_2"
  include {
    phase: TRAIN
  }
}
layer {
  name: "loss_3"
  type: "SoftmaxWithLoss"
  bottom: "fc6_BDK_3"
  bottom: "label"
  top: "loss_3"
  include {
    phase: TRAIN
  }
}
layer {
  name: "loss_4"
  type: "SoftmaxWithLoss"
  bottom: "fc6_BDK_4"
  bottom: "label"
  top: "loss_4"
  include {
    phase: TRAIN
  }
}
layer {
  name: "loss_5"
  type: "SoftmaxWithLoss"
  bottom: "fc6_BDK_5"
  bottom: "label"
  top: "loss_5"
  include {
    phase: TRAIN
  }
}
layer {
  name: "accuracy"
  type: "Accuracy"
  bottom: "fc6_BDK"
  bottom: "label"
  top: "accuracy"
  include {
    phase: TEST
  }
}
layer {
  name: "loss"
  type: "SoftmaxWithLoss"
  bottom: "fc6_BDK"
  bottom: "label"
  top: "loss"
  include {
    phase: TEST
  }
}
